DigitalRecognition/pytorch/cnn/net.pth (torch, 246111 bytes, 10 tensors)

conv1.weight f4 [6, 1, 3, 3]
00000000: 2395 8e3e 2cb5 e63e 64a5 f83d 9e2b c13e
00000010: 4f75 083f df76 4b3f 7791 2abf 79d8 53bf
00000020: 69f9 6cbe ca0c 053e ab78 8dbe d496 0abf
00000030: 9e69 113f efb9 f9be 3d9e 52bf dd39 7f3f
00000040: ffc1 ef3e 572f b63e b0d4 10bf 34eb 15bd
00000050: 9e59 46be 3931 7cbe f231 153f 66a4 1a3f
00000060: 62ab 89bd 2768 553f 4c58 2cbe 0c32 dcbd
00000070: 6fed f9be 762f 4bbf 8c1e 2ebf 81ce d1be
00000080: d184 103c 0190 2b3f e42f 103f 74c3 363f
00000090: 539b 273f c612 063f a9b7 2f3d 6884 893e
000000a0: 48dc 093f a04d 55bd 93d2 333e 97ea 343f
000000b0: 1588 793e 6a72 a6be 2888 4bbe dd9b 173e
000000c0: e15c 41bf c778 64be 4ca1 563f e867 b3be
000000d0: 9f6e e73d 67bf 813f
0.27848157 0.45060098 0.12140921 0.3772859 0.53304 0.7947826 -0.6662821 -0.82752186
-0.23142017 0.1299316 -0.27631125 -0.54136395 0.56801784 -0.4877467 -0.822727 0.9969767
0.46827695 0.35582992 -0.56574535 -0.03660126 -0.19370124 -0.24628152 0.58279335 0.604071
-0.06722142 0.8336205 -0.16830558 -0.10751733 -0.4881396 -0.79369295 -0.6801536 -0.40977862
0.008820728 0.6701661 0.56323075 0.7139199 0.6547138 0.52372396 0.04289976 0.2685883
0.5385175 -0.052075982 0.17560796 0.70670456 0.24368317 -0.32509166 -0.19876158 0.14805551
-0.75532347 -0.22311698 0.8383987 -0.35040212 0.11300396 1.0136536

conv1.bias f4 [6]
00000000: efc2 3e3f 17a7 77bd 4d3a 203f 2439 9b3d
00000010: b921 59be 24b7 eebd
0.74516195 -0.060462084 0.6258896 0.07579258 -0.2120427 -0.11656025

conv2.weight f4 [16, 6, 4, 4]
00000000: 092a 613c 6c78 bbbc acce 57bc b442 c1bc
00000010: ca56 2dbe 9b99 05bd c585 933e e070 d33e
00000020: bb6d 93be bbb2 9fbe 75f0 b0be 7c3b abbe
00000030: 4217 d4be dbc1 66be 520a 9d3d 6443 373e
00000040: e174 e7bd 8ac1 e0ba 314b 59bd f29e b13c
00000050: c763 06be 4b39 08be b460 94be 3017 cbbe
00000060: d171 7cbe d7e2 9dbd afd3 30be b2ac e1bc
00000070: db14 d4bc a8fa 7b3d b932 863c 51f9 3e3e
00000080: bb32 0fbe 640a 0abc 71af 833e cb54 ad3e
00000090: fb6e bcbe 9ec4 98be 9081 89be 65b2 e1bd
000000a0: b30d 53be c368 c2be 7cb7 50be 8a59 eabd
000000b0: be4a 133e 90b0 a23e 5b21 2d3e 30b4 363e
000000c0: 1035 b0be fb3d bcbe c353 00be 4444 003e
000000d0: 06e1 6bbd a16c 3dbe 4e16 acbe 4bda 91be
000000e0: 2108 89bd 4d81 863c f433 c33e 6e2f 9d3e
000000f0: d99e 393e cfdc 9f3e e24a 6b3e 98bc 9c3d
00000100: 2424 2b3d 13d5 ee3a c42c 0d3e 1fa6 063e
00000110: 75d3 e5bd 4ffa f2bc 2de3 9a3d c09d fb3d
00000120: bf0d 71be c657 89be 1f0e aebe d665 90be
00000130: 0a6c d5bd b67d cfbd 000b e63d e903 303e
00000140: 9fb7 f5bc c35f 933d f601 693e 6470 ae3e
00000150: 04ec 48be 332b 1fbe 9a64 c8bd 5a08 e6be
00000160: e9f3 42be af4b 95be a8fd babe 7cad a1be
00000170: a61e 263e d2c8 223e 5489 e6bd 8b7e 7dbd
00000180: 8003 35be fc6c ef3d 75dd 0d3c ad8c 0abe
00000190: 8e02 4d3b ccb4 d73d a05e 853d 334e 633d
000001a0: e8c8 7e3e c7d2 aabe 9b17 8fbe 7e38 c2bd
000001b0: 9237 033e 1de8 0c3e 7e60 95bd def6 2d3d
000001c0: 6f7a 12be 6fee 22be f6ed 793c 91ef 523e
000001d0: 7a22 ef3d 3fb5 7dbd be2b 23be 6553 d23d
000001e0: c519 173e a804 0c3f 25a9 c0bd 56f0 2b3e
000001f0: 02a5 c0b8 0975 1a3e bc87 ad3d d0c7 92bc
00000200: e444 013e e44f 4b3d f7e9 2bbc 8fe9 013d
00000210: 19b3 15be 82e2 98be 23db 3a3d ccf6 86bd
00000220: 87a5 253d dac9 033d a815 853d b9cc 043d
00000230: 9624 f93c 56bd 7b3e bf62 713e 94a7 353d
00000240: 0d63 bebd ae04 023d 189e 82be 852d 6dbe
00000250: 25a7 4bbd 33b7 c0bd 8247 5bbe 533d 6cbe
00000260: 9a1b ffbd ae7c c73d bd38 803d 138c 88bd
00000270: 4431 a3be 3d1d 8dbe 0711 ae3c cc9e ba3d
00000280: b191 24be 9bc2 3fbd ae5a 583e ebc5 5dbd
00000290: 51af bcbc 5817 b5be 87d1 b0bd 87d3 ed3d
000002a0: 592b 90bd e852 97bd e671 13be cb9d 91bd
000002b0: 3173 adbd f611 413e ce6e 463b 1485 b9bd
000002c0: 65b6 d93d b999 fb3d 07f5 f2bd 80cc 7d3d
000002d0: 430a 06be 5a8c 34be 726f 0f3e 21f4 0cbc
000002e0: f344 1dbd 0dda 313d 65a5 9e3d f1e8 1d3e
000002f0: 0d7f 223e 0978 2b3d e5b8 78bd 3a2c 1abe
00000300: cf30 80bc f929 24be 9702 563d 4a12 453e
00000310: f43f ebbe 4ce8 3d3d e048 953d 89c7 4dbe
00000320: ddb9 cbbe f2bf 83bd 5a2a 55be bd57 aabe
00000330: 40fe bebe 8168 bbbd b72e 81be f760 21bd
00000340: b5ef 87be 3426 663d e7d9 31be 25a3 81bd
00000350: 0f41 b7be 89bc ef3d d839 15be ba4c 3ebe
00000360: 263f 2dbe 255b 083e 4251 463d 5fee 5cbe
00000370: 7d47 0abc a340 5a3e 1c7a d23d 7b75 9fbd
00000380: bb53 35be 57c4 013e 9b47 fa3d 4174 43be
00000390: 3bab 23bc 4b61 c03e 3bd9 0cbe 7782 2cbe
000003a0: aade 3e3e 892c 2c3d 294e 6bbe c3de 2cbc
000003b0: 9e1f 3d3e 2df4 0a3e c91e dfbc 6b02 c53d
000003c0: c503 cfbd c809 1fbe 2ed9 b23d 8045 43be
000003d0: b885 34be 1b81 12bd 1bc9 8ebd 1fc3 223d
000003e0: a070 08bc d5d4 9fbe d270 4c3d ab52 963d
000003f0: dc0c 79be a40b 9cbe 2c60 e03c 7821 55bd
0.013742932 -0.02288457 -0.013171833 -0.023591377 -0.16927639 -0.032617193 0.28812996 0.41297054
-0.28794655 -0.31191048 -0.34558454 -0.3344382 -0.41423994 -0.22534887 0.07667984 0.17896801
-0.1130159 -0.0017147523 -0.053050224 0.021682236 -0.13124 -0.13303106 -0.2898003 -0.39666128
-0.24652793 -0.07709282 -0.17268251 -0.027548168 -0.02588885 0.06151834 0.016381608 0.18649794
-0.13984196 -0.008425329 0.2571979 0.33853754 -0.3680342 -0.29837507 -0.2685666 -0.11020354
-0.20610695 -0.37970552 -0.20382494 -0.114428595 0.1438398 0.31775331 0.16907255 0.17842174
-0.34415483 -0.36766037 -0.12531953 0.12526041 -0.057587646 -0.1849847 -0.33610767 -0.28486857
-0.066910036 0.016419077 0.38125575 0.30700248 0.18127002 0.3122315 0.22977784 0.07653159
0.041782513 0.001822146 0.13786608 0.13149308 -0.11221973 -0.029660372 0.075628616 0.12285948
-0.235404 -0.26824778 -0.3399515 -0.28202695 -0.104209974 -0.10131399 0.11232567 0.17188992
-0.029994784 0.071959995 0.22754654 0.34070122 -0.19621283 -0.15543823 -0.09784813 -0.44928247
-0.19038357 -0.29159304 -0.3652165 -0.3157767 0.16222629 0.1589692 -0.11256662 -0.06188826
-0.17677116 0.11690709 0.0086587565 -0.13530226 0.003128204 0.10532531 0.06512189 0.0554945
0.24881327 -0.33363935 -0.27947697 -0.09483431 0.12814167 0.13760419 -0.07293795 0.04247176
-0.14304517 -0.15911268 0.015254488 0.205992 0.11676498 -0.061940428 -0.15934655 0.102698125
0.14755924 0.54694605 -0.09407262 0.167909 -9.1860085e-05 0.15083708 0.08473155 -0.017917544
0.12623936 0.049636737 -0.010492793 0.03171688 -0.14619102 -0.29860312 0.04561914 -0.065900415
0.040441062 0.032174923 0.06498271 0.0324218 0.030412953 0.24583945 0.23572825 0.044349268
-0.09296236 0.031742744 -0.2551124 -0.23161896 -0.04971995 -0.094099425 -0.21413997 -0.23070268
-0.124564365 0.09740578 0.06260822 -0.06667342 -0.31873524 -0.2756137 0.021248354 0.09112319
-0.16071202 -0.04681645 0.21128342 -0.054143827 -0.023032816 -0.35369372 -0.08633714 0.11612611
-0.07039518 -0.0738886 -0.14398918 -0.07110175 -0.08469237 0.18854508 0.0030278447 -0.09058586
0.10630492 0.1228518 -0.118631415 0.061962605 -0.13089852 -0.17631665 0.14007357 -0.008603127
-0.038395833 0.04342084 0.0774639 0.15420891 0.15868779 0.04186252 -0.060723204 -0.15055934
-0.015648274 -0.16031636 0.052248564 0.19245258 -0.4594723 0.046364114 0.072892904 -0.20095648
-0.3979024 -0.06433095 -0.20816937 -0.33270064 -0.37303352 -0.09150792 -0.25230953 -0.039399114
-0.2655007 0.056188777 -0.1736828 -0.063299455 -0.35791823 0.11705882 -0.14572847 -0.18583956
-0.1691862 0.13316019 0.048417337 -0.21575306 -0.008439896 0.2131372 0.10277197 -0.077860795
-0.17707722 0.12672554 0.12220689 -0.19087316 -0.009989555 0.3757423 -0.13754742 -0.16846643
0.18639627 0.04203466 -0.22979034 -0.010551157 0.18469092 0.13569708 -0.02723636 0.09619602
-0.10108141 -0.15531075 0.0873283 -0.19069481 -0.17629135 -0.035767656 -0.069719516 0.039736863
-0.008327633 -0.31217065 0.04991228 0.073399864 -0.24321312 -0.3047763 0.027389608 -0.05203387

conv2.bias f4 [16]
00000000: 8f71 25be 5462 2bbe dd17 a9bd fdcf 69be
00000010: 3d1c dcbc 1a7a 8abe e3fa b0bd 028b 38be
00000020: ff47 c8bd b5c1 70bd 3656 f83c 007b 13be
00000030: 11d1 39be e6c6 a03c 9816 dd3d 558b 1e3d
-0.161566 -0.16736728 -0.08256505 -0.22833247 -0.026868934 -0.2704628 -0.08641603 -0.18021777
-0.09779357 -0.058778483 0.030314546 -0.1440239 -0.18146159 0.019626092 0.10795325 0.038707096

fc1.weight f4 [120, 400]
00000000: ed6a f4bc 1625 d9bd d961 9dbd 401d d33d
00000010: 8b55 213e 6afb edbc 5650 c5bd 1100 00bd
00000020: 778c 943c 3cd1 343d 6fd5 9a3d 4291 443d
00000030: b632 5d3b bcec 42bd 9a8f 72bd 59c6 fabd
00000040: c91b fabd a4d5 0bbd e379 78bb 3aa3 50bc
00000050: e0dc 8f3d 8630 bfbc 3db2 84bd 45bd 86bd
00000060: 0712 52bd 080a 99b9 470f 87bd 2a29 ebbc
00000070: f3a6 c43c e813 34bd 430b 1abd ca89 bc3d
00000080: 7216 4f3e ff2d 7d3d c8b0 7c3c 296a f0bc
00000090: 3deb ba3b e8db b1bd 5576 b93d c6de 6f3b
000000a0: a9b6 b3bc 1b01 96bd e29a 2fbd ab83 d63b
000000b0: d7fe 823d bac2 903c fa61 0d3c cc8d 9eb8
000000c0: 85f8 70bd 5092 a73b 44e7 573d 51bb 813e
000000d0: fa51 443e 989f 093e 5280 e4bc c619 c93d
000000e0: 4b0b ea3c 9baa 0e3e 4b28 6a3d b3b1 103c
000000f0: 778a eebc 0e6d babc 2758 80bc 4ddc 34bd
00000100: 0002 a7bd 3742 1b3d 7eca 8b3c e09c de3d
00000110: 6e72 b5bd c371 f3bc d3b6 42bd 8db5 31bb
00000120: 61c8 d43c 0e3e 2ebd 676d babb 4bc0 aebd
00000130: d3e7 34bc ac1a 263d 0bae ae3c 94a1 9bbd
00000140: 0038 77bd f6f3 31bd dd06 82bd 46ae 1b3d
00000150: 5f7a 973d 4613 11bc 70aa 11bd c690 d2bd
00000160: 6781 083e 8354 873d 7675 843d 7ca0 8ebc
00000170: 6192 88bd 4b7d 923c cf9f df3c 62c5 3dbd
00000180: 77ba 023b c5bb 693d 5883 f23c 70cd 11bd
00000190: b305 81bc 9fef 093c 6e3f 883d 3958 b73d
000001a0: 69c8 333d 5276 cdba ca8f b4bd ea86 903c
000001b0: 091b 99ba f8f6 6fbd 0ef1 9fbd 6c25 9fbd
000001c0: 7f5c 06bd 9f10 aa3c dd9d 3abd ece3 0d3d
000001d0: f63c ecbd f8ba e4bd 506a 9d3c d654 773d
000001e0: df70 86bd 221f 05bd 2522 56b9 43f2 a93d
000001f0: d5b4 30bd 67a5 b0bd 9840 5fbd 0d6c 87bc
00000200: 9bf4 a6bc 1b5a cebc 04dc 9b3d d056 b4bd
00000210: acfa 873d d031 503e 89ea 4b3c a6f4 b93d
00000220: f8a1 2f3d 7dcd 143e 9729 433e d474 2dbd
00000230: 49bd 7dbd f08d 07bd 0486 58bd 73e3 06bd
00000240: 937d 5dbd 5b68 9cbd 4ad1 07bb e427 e4bc
00000250: 1778 9bbd 6a2a f6bc 8c42 aa3d 8f21 123e
00000260: 250b 30bb 601a 9a3d 15cc 553d 75a5 833d
00000270: 3b81 103d 2356 c5bd 153d 35be 7b54 40bc
00000280: 9ff4 463b 394d 29bd ad56 c8bd 8d0e 48bd
00000290: 7a4e ab3c 9c92 9e3c 8ec1 4d3e 9278 c93d
000002a0: 9c6b 51bd d62e 71bd 9440 55bc 657d c43d
000002b0: 9599 0ebd a0f4 31be 3ef2 39bd 73ba 58bc
000002c0: 59d2 02bd 751c 9f3c 9c57 133d c77f b13c
000002d0: 231f c53c 836f df3b 526a b23c 73e9 f03d
000002e0: e053 a83d 8376 fabc 5000 58bd ab6d 36bc
000002f0: ad2f 8bbd 72b9 32bd 8330 853d 578f 8d3d
00000300: cfea e7bc 6cc0 a2bd a63e 0fbd ecab 013d
00000310: b59e f6bd 0f6f b4bd a79e dcbb 7a2d 6dbd
00000320: be74 4abd c6aa 00bd ca64 a8bb e8e9 20bc
00000330: 0052 96bb 3f1f 06bd 28d2 863c c679 bf3c
00000340: 1a1c 8f3d f0c6 d1bc 4ea1 96bc ede7 18bd
00000350: f36e c7bb 3f34 3c3d 92bb b73c 190c 0a3c
00000360: 4f5e f8bb baa6 863d 7b0e a63c 2112 653d
00000370: b9a4 1c3b 25fa 4cbd df64 7dbd 115f 60bc
00000380: d3b1 d33c deb8 9c3b 0825 35bc a6b6 d3bc
00000390: 6ae6 893d ba1f db3d 13d3 94bd 2670 ddbd
000003a0: 5620 96bd 78c4 303d 8597 513d eb5c a23b
000003b0: 48d9 0fbd 7c6f a73d 4693 12bc 8ebb 133d
000003c0: d1b0 f03d abff 183e 5772 47bd 48e5 fabc
000003d0: fe09 cabc 013a 7bbd 2bba 19be 5339 98bd
000003e0: dc38 813d 36b2 013c d3e4 b3b9 498f b23b
000003f0: 5b2d 3fbd 72f9 3ebd ca39 45bd c7d4 14bd
-0.029836142 -0.10602777 -0.076846786 0.10308313 0.15755288 -0.029050548 -0.096344635 -0.031250063
0.018133385 0.044144854 0.075602405 0.04799009 0.003375215 -0.04758905 -0.05921898 -0.12244863
-0.12212331 -0.03413929 -0.0037914447 -0.012734229 0.070245504 -0.023338567 -0.06479309 -0.06579069
-0.051286723 -0.00029189908 -0.06594711 -0.028706152 0.024005389 -0.043964297 -0.037608396 0.09205969
0.20223406 0.061811443 0.015423007 -0.029347496 0.005704312 -0.08684522 0.09055773 0.003660129
-0.021937685 -0.073244296 -0.042872317 0.0065464578 0.06396263 0.017670978 0.008629316 -7.560439e-05
-0.058830757 0.0051138774 0.052710786 0.25338224 0.19171897 0.13439786 -0.02789322 0.09819369
0.028569838 0.13932268 0.057167333 0.008831429 -0.02911876 -0.02275708 -0.015667034 -0.044155408
-0.08154678 0.037904944 0.01706433 0.10869765 -0.08859716 -0.029717332 -0.047537636 -0.002711627
0.025974454 -0.04253965 -0.0056893113 -0.08532771 -0.011041599 0.04055278 0.021323225 -0.07599178
-0.06035614 -0.04344555 -0.06348965 0.038007997 0.07396387 -0.008854693 -0.035562932 -0.102815196
0.13330613 0.06607916 0.064677164 -0.01741051 -0.066685446 0.01788201 0.027297882 -0.046330817
0.0019947567 0.057063837 0.029603645 -0.03559631 -0.015749788 0.0084189465 0.06652723 0.08952374
0.043892298 -0.0015675521 -0.08816488 0.017642457 -0.0011681031 -0.058585137 -0.078096494 -0.077708095
-0.032803055 0.020759879 -0.045560706 0.03464119 -0.11535065 -0.11168474 0.019215733 0.06038364
-0.06564497 -0.032500394 -0.0002042135 0.08298161 -0.043141205 -0.08625298 -0.05450496 -0.016531015
-0.020380309 -0.02518945 0.07610324 -0.08805621 0.06639609 0.20331502 0.012446054 0.09079866
0.042879075 0.14531513 0.19058834 -0.042347744 -0.061948095 -0.033094347 -0.052862182 -0.032931756
-0.054074835 -0.07637092 -0.0020724111 -0.027851053 -0.07591265 -0.030049521 0.08313474 0.14270614
-0.0026862111 0.07524562 0.05219658 0.06428043 0.035279494 -0.0963557 -0.17699082 -0.011738892
0.0030358208 -0.04133341 -0.09782157 -0.048842 0.020911444 0.019357018 0.20093367 0.0983745
-0.051128015 -0.058882557 -0.013015885 0.095942296 -0.034814436 -0.17378473 -0.045397036 -0.013228047
-0.031938884 0.019422749 0.035972223 0.021667374 0.024062699 0.006818713 0.021779213 0.11763277
0.08219123 -0.030574089 -0.052734673 -0.011134545 -0.06796203 -0.043633886 0.065033935 0.069121055
-0.028310208 -0.07946858 -0.034971856 0.031658098 -0.1204199 -0.08810245 -0.00673278 -0.057904698
-0.04942774 -0.031412862 -0.005138968 -0.009821393 -0.004587412 -0.032744642 0.016457632 0.023373496
0.06987782 -0.025607556 -0.018387463 -0.037330557 -0.006086224 0.045948263 0.022428308 0.008425736
-0.007579602 0.06574769 0.020270577 0.055925492 0.0023901893 -0.050043244 -0.061863776 -0.013694541
0.02584163 0.00478278 -0.011056192 -0.02584393 0.06733401 0.10699411 -0.07266822 -0.10812406
-0.07330386 0.043156117 0.05116989 0.0049549243 -0.035119325 0.08175561 -0.008946246 0.036067538
0.11752475 0.1494128 -0.048693027 -0.030626908 -0.024662968 -0.061334614 -0.15012424 -0.07432809
0.06309673 0.007916024 -0.00034312028 0.00544921 -0.046674114 -0.04662461 -0.048150815 -0.036335733

fc1.bias f4 [120]
00000000: 0827 d0bc ed01 393c 9771 2bbd 17cb 8a3d
00000010: b108 95bc 5f3a 763c c3cb ddbc 7ef7 9f3c
00000020: e550 01bd f208 ce3c db8d 20bd 7cc6 b2bc
00000030: eda9 bcbb b037 84bd 4bba d73c 83fe 0fbc
00000040: 5858 883d 8273 b43c 258c dcb9 f6f8 6839
00000050: 9745 293c ffdb 04bd a294 303c ed2b 893d
00000060: 0553 c93c 1c76 1fbd 44fc d53c 2d09 b83c
00000070: 627f 49bb 6846 a53c abf1 ebbc 2d0c 2ebb
00000080: e7c0 11bd 1e26 96bc 5f1a f2bc c357 48bd
00000090: e9c9 a73a 5f1a 17bb 4f58 83bc 56d2 4e3d
000000a0: dbda 24bb 7784 193d 9880 e0bb 13cf 073c
000000b0: b9d6 cb3c 8c84 37bd ece1 e2bc 740c 023d
000000c0: d1df afbb eb47 f93c 69be 053d 461e 393d
000000d0: 5f60 05bd 2c87 9dba e237 043d 034c 5f3b
000000e0: 733d be3c 8adf 623d e7a4 c2bc 01b0 96bc
000000f0: 9f69 013d 83a2 4bbd 4517 833c a631 453c
00000100: 1951 823d 2fd2 ebbc ec40 793d 2f53 10bd
00000110: 104b 423c 1f18 093d 9cab 3a3c 5a55 783d
00000120: de39 af3b d26a 8e3c bb0c 91bc a510 893c
00000130: d741 ccbc 993d 023c 6a24 753b 33d4 24bd
00000140: 8297 39bd a2ba f63c dce4 47bd f0a9 e0bc
00000150: 953d 843b ea8d 61bc f5c3 073d 5b23 833b
00000160: 059f 5dbc c75e 1ebd 256d 45bd b159 90bb
00000170: 2f0a 3d3d 0d0d 54bd e4d6 f13b fc3d 263d
00000180: 5d9c acbc b852 96bc 6024 4bbd bcf5 01bc
00000190: 6190 6e3d bb78 2c3d 93a5 573c 3296 b0bb
000001a0: 7a26 3cbb 8f41 3cbd 298b 1e3d 152e 4c3c
000001b0: 6c24 b13b 009f 09bc 496d 1c3c 8c41 f03c
000001c0: 332a 883d 79b2 25bd 72cf 44bc d7ff 4d3d
000001d0: 8d2c 383d 138b 3dbd 217d 833c 0eb6 16bd
-0.025409237 0.011291963 -0.041856375 0.067770176 -0.018192621 0.015028565 -0.0270747 0.019527193
-0.031571288 0.02515075 -0.039197784 -0.02182316 -0.0057575614 -0.06455934 0.026333949 -0.008788708
0.06657475 0.022027735 -0.00042066086 0.0002221799 0.010331533 -0.032436367 0.010777624 0.06697831
0.02457572 -0.038930997 0.026121266 0.022465313 -0.0030746092 0.020175174 -0.02880176 -0.002655755
-0.035584357 -0.018328723 -0.02955359 -0.04891182 0.0012801263 -0.002305649 -0.01603332 0.05049356
-0.0025154862 0.037479844 -0.006851267 0.008289116 0.024882661 -0.04480414 -0.027695619 0.031750157
-0.005367257 0.030429801 0.032652292 0.045194887 -0.03256261 -0.0012018434 0.032279857 0.0034072406
0.02322266 0.055388965 -0.023760272 -0.018394472 0.03159487 -0.04971553 0.016002307 0.012035763
0.063631244 -0.028786747 0.06085293 -0.03523558 0.011858717 0.03347027 0.011393454 0.060628273
0.0053474745 0.01738492 -0.017706266 0.01673157 -0.024933739 0.007949256 0.0037405738 -0.04024143
-0.045310505 0.03011829 -0.04880224 -0.027424783 0.0040356615 -0.013766745 0.033145864 0.0040020174
-0.013526683 -0.038664605 -0.04819979 -0.0044052233 0.04615229 -0.05177026 0.0073803533 0.040586457
-0.021070654 -0.01834999 -0.049595237 -0.007932123 0.05824316 0.042107325 0.013162035 -0.0053889984
-0.0028709457 -0.04596096 0.038706932 0.012462159 0.005405953 -0.008399725 0.00954754 0.02932813
0.06648674 -0.040453408 -0.012012349 0.050292816 0.044964362 -0.04627521 0.016050877 -0.036794715

fc2.weight f4 [84, 120]
00000000: b6c7 5e3c 2920 ce3d 70a3 023d 0656 503d
00000010: 8be9 29be 277f 983d eb57 f63d 9017 86bd
00000020: d2ed d23d a113 0dbe 86da 8e3d c0cc a43c
00000030: 1175 a63d d99e 073e 97a2 c6bc ddc7 70be
00000040: e7ed 1ebe 065b 723e 63ac 4ebc 8812 d23c
00000050: 51bb 6b3d f0b9 a33c 146c 963c d60a f53c
00000060: 3700 aebd 16fc bfbd eafc cd3d 1748 5dbd
00000070: de11 8c3d 2d0e 183e 7213 7ebd d928 28be
00000080: 59ba eb3d 6772 b5bc 3e09 8d3c aa73 49bd
00000090: e01e 0d3e 108d c2bd 0b9a 563e e72d 383e
000000a0: 4a2e 1b3e 9b32 4fbd dc16 c5bd b37e bb3d
000000b0: 1afb 22be 8d48 c93c 06b8 f53d 0d7b 883d
000000c0: 31c5 1dbd 33f0 a33c 93d4 983d 8f79 113d
000000d0: 66d7 32bd 110a 133d 733e 98bd c564 b33d
000000e0: 87b5 e4bd cf34 21bd f912 5b3e 16a1 85bd
000000f0: ddee e13d 1c07 e9bc f532 86bd fb02 9d3d
00000100: 947b ef3d 4642 4c3d 336d e63d 2725 ecbd
00000110: e7b7 ebbd ca89 c23d 2a21 393e ed27 e7bd
00000120: 2dd3 2cbd fd71 263e 7b9e 4a3c d48e c43b
00000130: 99c7 22bd 9a6f b33b 9460 7ebd e7aa 17bd
00000140: 877c 963d 0592 afbd 6ef2 e8bb 919c bfbd
00000150: 14d0 a23d c14b 26be 334d a2bd 158c e5bd
00000160: 282a 33be 759a bc3d 1132 0cbd ae13 543d
00000170: bf8b 5f3d 6339 dabc 1a07 47bc 68a9 f63b
00000180: ee23 0c3e 236b 96bc 55d0 9ebd e54c d5bc
00000190: cfdc f7bd 9275 543e 98b2 09be 9d6b e53d
000001a0: b3f5 8dbb 4a17 dfbc ef2c cabd 430d 303d
000001b0: 3cbe 35be 8824 0a3e c1e3 8cbd 2f4d f53c
000001c0: f963 f63c 7db8 99bc 7634 88bc 93fd d6bd
000001d0: 8cc1 eabc e870 83bd ed3a a9bd 96e2 a83c
000001e0: 5752 a33d 9809 bcbd 9d31 813d ad6f e5bc
000001f0: f640 293d ed7a e43c 0088 0cbd 09d6 70bd
00000200: 6e3c 1ebd d6f0 1abd 5091 3c3d 2765 873d
00000210: df55 b3bc a871 093d fc23 c8bd 0dbd 95bd
00000220: ab68 c4bb e698 6fbd 454a a13c 2241 f2bc
00000230: 9544 a83d 70b5 83bd a885 4f3d 519a 2a3d
00000240: f4f8 b23d 9bd1 293d 7811 e9bd 5a5d 57bd
00000250: c6f6 79bb 2171 da3c d4b1 a53d 403a 89bd
00000260: 6116 a23d 9216 df3c 3789 87bc e13f b03d
00000270: 781b 97bd e21f 41bd 1e61 bcbd b5c1 5fbb
00000280: 734c 943b a2c0 c8bc 070e a0bd ce11 393d
00000290: c332 f53c 454f f03c f0cc b0bd c01c 99bd
000002a0: 0449 d73b df23 78bd fa52 9bbd c713 d23d
000002b0: c779 84ba 7e86 0cbd 24e8 973d c8f3 5c3d
000002c0: 9c78 6ebd 8a2a 5aba 8b99 8a3d 86ef 1cbd
000002d0: 592c 94bd 6cbc 093c 9994 c9bd 97e5 c9bc
000002e0: 3295 61bd 4766 dbbb be3d cabd 70e1 46bd
000002f0: 0ef3 393d b7d2 ea3c 62b4 abbd 9217 f93b
00000300: f8a8 b2bd 0571 89bc 7b1f 0a3d ea31 abbb
00000310: d175 0a3d 86de c53d 9a45 75bd 13d1 8d3d
00000320: a621 243b ebd6 5fbd 7568 8e3b ae70 a13c
00000330: 9d0c 8c3d 4da7 2f3d fe72 983c c4f4 1b3d
00000340: 5093 9abd 4d59 10bc b6be 94bd e418 e33d
00000350: b035 c7bc 7652 64bc fd5e e23d feb1 3dbc
00000360: 60e4 8a3d 680f 843c ba4b b5bd 4278 abbd
00000370: af23 9c3d 5ac4 393d fdca 913d 44a2 edbb
00000380: 11fd 68bd 4f4f 2e3d b140 ae3d 719b ffbc
00000390: 1219 c5bd 837c a03d d99e ed3d e3ac abbb
000003a0: b451 ae3d e393 083d ac29 74bc 72bb 25bd
000003b0: 6eee 42bd 3d2a 90bd d6d1 a53d 7343 68bd
000003c0: 6f79 53be def9 383b b55b c1bc 4052 4a3e
000003d0: 3a70 193e 229b 80bd 51f3 06bd feb7 e5bd
000003e0: 36db 243e 35a4 05be 12bc d33d dca1 a5bd
000003f0: 2d92 1cbd 95a8 8a3d 90dd 5bbb 3267 ad3d
0.0135974195 0.10064728 0.031894147 0.05086329 -0.16592996 0.074461274 0.12028488 -0.06547463
0.10299267 -0.13777019 0.06975274 0.020117164 0.081277974 0.1324419 -0.02424745 -0.23513742
-0.1552044 0.23667535 -0.012614342 0.025643602 0.057551686 0.019986123 0.018362083 0.029912394
-0.08496135 -0.093742535 0.10058005 -0.05402383 0.068393454 0.14849158 -0.062030263 -0.16421832
0.11510152 -0.022149278 0.017216321 -0.04918257 0.13781309 -0.09499562 0.209572 0.1798626
0.15154377 -0.05058537 -0.09623501 0.09155025 -0.159161 0.024570728 0.1199799 0.06664095
-0.038518135 0.020011997 0.0746242 0.035516318 -0.04366245 0.035898272 -0.07433786 0.08759455
-0.11167436 -0.039357003 0.21393956 -0.06524865 0.11031888 -0.028445773 -0.06552688 0.07666584
0.116934925 0.04986789 0.11251297 -0.11530524 -0.11509686 0.094989374 0.18079057 -0.11286912
-0.04219358 0.1625442 0.012366886 0.0059984718 -0.039741132 0.0054759504 -0.062103823 -0.03702822
0.073479705 -0.08572773 -0.007108978 -0.093560345 0.07949844 -0.16239835 -0.07924881 -0.11208359
-0.1749655 0.09209148 -0.034227435 0.05177658 0.05457663 -0.026638692 -0.012147689 0.007527519
0.13685581 -0.018361634 -0.0775458 -0.026037643 -0.12102663 0.20747975 -0.13447034 0.11202166
-0.004332268 -0.027232785 -0.09871852 0.042981397 -0.1774835 0.13490498 -0.06879378 0.02994403
0.030076968 -0.018764729 -0.016626578 -0.10497584 -0.028656743 -0.064180195 -0.08263192 0.020615857
0.079746895 -0.09181517 0.06308291 -0.028007353 0.041321717 0.027890647 -0.034309387 -0.05879787
-0.03863185 -0.037827335 0.04603702 0.0661109 -0.021891532 0.033555657 -0.097724885 -0.07311449
-0.0059939227 -0.058495425 0.019688735 -0.029572073 0.08216206 -0.06431091 0.050664574 0.041651074
0.0873889 0.04145966 -0.11380285 -0.05257926 -0.0038141473 0.026665272 0.08090559 -0.067005634
0.07914425 0.027232442 -0.016544921 0.08605934 -0.07378286 -0.047149546 -0.09198211 -0.0034142558
0.004525715 -0.024505917 -0.078151755 0.045182995 0.029931432 0.029334674 -0.08632839 -0.07476187
0.0065699834 -0.060581084 -0.07584186 0.102576785 -0.0010107093 -0.03430795 0.07417324 0.053943425
-0.05822049 -0.0008322379 0.06767567 -0.038314365 -0.07235021 0.00840674 -0.09842796 -0.02464561
-0.055073924 -0.006695542 -0.09875058 -0.048554838 0.04539781 0.02866493 -0.08384015 0.0076016868
-0.087236345 -0.016777525 0.03372143 -0.005224456 0.033803765 0.096615836 -0.05988083 0.06924643
0.002504447 -0.05464832 0.0043459483 0.01970705 0.06838343 0.04288416 0.01860952 0.038075224
-0.07547629 -0.008810353 -0.07262938 0.11088732 -0.024317592 -0.013935676 0.11053274 -0.011578081
0.0678184 0.016120628 -0.08852334 -0.08372547 0.076239936 0.04535327 0.07118795 -0.0072520096
-0.056881968 0.042556103 0.08508433 -0.03120205 -0.096239224 0.07836249 0.116025634 -0.0052391156
0.085116774 0.03334416 -0.0149025135 -0.040461965 -0.047590666 -0.07039306 0.08096664 -0.05670495
-0.20651792 0.0028225104 -0.0236033 0.19757938 0.14984217 -0.06279589 -0.03294689 -0.11216734
0.16099247 -0.13050921 0.10338606 -0.08087513 -0.03822534 0.06770436 -0.003354881 0.084669486

fc2.bias f4 [84]
00000000: 1df8 64bd 0d17 df3c 9f83 a03d 8ccb b8bc
00000010: f6d6 dfbb 5e06 b1bd 96bb ef3d d7b9 ac3c
00000020: 77d6 5a3d 3783 363d cba1 3b3d b98f 0bbc
00000030: e661 87bd 34e3 36bd e9ea f2bc 59a8 31bd
00000040: e6f1 37bd 0744 643b 80fb 6e3b 63b9 41bc
00000050: 4542 dd3d 25d1 12bd 1e63 843d d440 0abd
00000060: 0066 aabd 0510 cbbb bcc2 bcbd 8425 f73c
00000070: 205f b13d 7032 633d 8bbe d13d 81a3 c0bd
00000080: decd a5bc d984 6cbd 470e 09bd ccaf 223d
00000090: f40b 0dbb b9fc 96bd 9ef0 253a 946e 1d3e
000000a0: 5252 1fbd b188 6fbd 7c3d 193d f7fa 6b3d
000000b0: 9050 e23d ff9a 89bd 7e0c 973d ebf9 533d
000000c0: aac5 95bd a31f 56bd 97fc 453d bd63 91bd
000000d0: 96af 4dbd 5f6a 913d 4fca a3bd f11f 373d
000000e0: 537d 963d cd94 503c ed5c e03d 25af 93bc
000000f0: 98a3 c2bc 43d6 393d 24dd 92bd e63a 5c3d
00000100: 42ec 223d 08fe 5dbd 33ea d73b f2e2 16bc
00000110: 5eea 47bd 0f4c 9d3d 4656 db3d cb46 53bd
00000120: 8154 a73c 9723 c13d d969 4fbd c460 2cbd
00000130: 3583 50bd df03 a4bc 720a 4e3d 1a83 d0bc
00000140: 0d4d 9abd 4b09 ef3c c7f7 483d 6720 cbbc
-0.05590068 0.027232671 0.07837605 -0.022557996 -0.0068310453 -0.086437926 0.11705701 0.02108471
0.053427186 0.04455873 0.045808595 -0.008518153 -0.066104695 -0.04465027 -0.02965303 -0.04337344
-0.044908427 0.0034830587 0.0036465824 -0.011823985 0.108036555 -0.035843987 0.064642176 -0.03375323
-0.08320236 -0.006196978 -0.0921683 0.030169256 0.08660722 0.055468023 0.10241421 -0.09406186
-0.020239767 -0.05774388 -0.03346088 0.039718434 -0.0021522017 -0.07372422 0.0006330105 0.15374213
-0.038896866 -0.05847997 0.03741215 0.057612386 0.11050522 -0.06719016 0.073754296 0.051752012
-0.07313092 -0.052276265 0.04833659 -0.07099102 -0.05021628 0.07100367 -0.07997572 0.044708196
0.073481224 0.012730789 0.10955224 -0.018027851 -0.023759648 0.04537035 -0.071710855 0.053767107
0.039776094 -0.05419734 0.006589198 -0.009209381 -0.048807494 0.07680523 0.10709815 -0.051581185
0.020426037 0.09430616 -0.050638054 -0.04208447 -0.05090638 -0.020021377 0.05030293 -0.02545314
-0.075342275 0.029179236 0.049064424 -0.024795724

fc3.weight f4 [10, 84]
00000000: 3ef9 863e 75e5 cd3d cc28 db3e 8bef 03bd
00000010: c800 5bbe e62c a5bd b887 89be 097c 8b3d
00000020: 8424 513c 951d bdbe 5bab 2a3e 99c4 7ebe
00000030: dad2 f03c dc4c 92be 8246 e73e 3cb3 fbbd
00000040: 62ad 00bd 8860 cc3e 4306 383d 0c42 2f3e
00000050: b963 93bd 4263 263e ddfb 2ebe 7ec9 443d
00000060: c700 263e 9ed5 cdbc 35c0 393d 0c61 82be
00000070: 6eb6 81be cd2d 37be e05a 1ebe 7c7e d63d
00000080: 7a9f 38be b8f0 1d3d 0195 81bd d5ba 573e
00000090: 8ac0 943e 0ef8 d2bd e60b 34bd 7a9d a8be
000000a0: 2497 eabd 3565 b4bd f1ce b1be 3a27 6cbe
000000b0: 21a1 51be e2d0 f93c 8664 4abe 0e9a 5a3d
000000c0: 3727 8abd 208b ae3d 4321 85be e727 35be
000000d0: f561 6d3e 1260 23be edb9 70bc 8dcf a93d
000000e0: 0521 463e b496 f5bd 0daa 603a 6c1b ebbd
000000f0: 4957 97bc 8530 083e 2609 5e3d 6030 743d
00000100: 50cc 94be dc36 c93d eafb bbbe 8565 cb3b
00000110: 3cd9 863b 3da5 b13e 99a1 e33b d9dc 0fbe
00000120: c8a4 2dbc 92d3 49bd c8bb 4bbd 6126 28be
00000130: 4a1b b8bd 7df1 d2bd ea00 9c3e 5efa 30bd
00000140: e300 673d 873f 793e b107 963d 9a68 0a3e
00000150: 0310 223e 59c9 1dbc a91c 833e 19dd 123c
00000160: 0436 93bd b70d a3bd 8cde ac3e 1b8b b33d
00000170: 4c88 8f3e fa3d b53e 60d9 c1bd 71ca 06be
00000180: 57e4 233e c800 03be 193a 6fbe a54e 15be
00000190: e790 72bd 4b3a 2abe 1517 9bbd 8bee 743c
000001a0: 7172 863e 8f7b 4dbe b5d5 c3be ac50 923d
000001b0: 9288 8bbd 8308 b8bd 42bb 92bd 900e 09be
000001c0: 2d1f 26bd eeac b9be f085 8d3e 9ce6 fb3d
000001d0: aef0 8cbe 0a8b 89bd c780 cb3d a6b2 04be
000001e0: c854 c73d e667 d6bd 2add 603e 6fd7 f53e
000001f0: 11d5 993d 59c3 8fbe ccfe 823e 9a81 8e3e
00000200: c894 8e3e 1137 b4bb 777a a7bc 2bb7 14be
00000210: 2fa7 4d3d dbb6 01be 0021 85be faa8 a03d
00000220: b42d 903c c32f 763e 895b a5bd e628 323b
00000230: ec4a 343e f234 01be bde9 ac3c 4fc6 22be
00000240: e7a7 bc3d f231 263d f470 abbd 8e82 49bd
00000250: 821a 05be 21ab f5bc d529 a3bd 0d12 cc3d
00000260: e3bd ccbd 5681 0ebe d28a 13be 9035 bdbd
00000270: 811e b6bd 0ddf 91be bd30 da3c f3fe cf3d
00000280: 8c91 4abe a4fc 74be b59f 9ebe ea68 ac3e
00000290: baf7 83bd 34c3 85be 726c 17be c63f e0bd
000002a0: 905e 5ebe 246d e9bd 5242 a63e be17 323e
000002b0: 88ba 603d 6ede adbd ec77 17bd a45c 8ebd
000002c0: 08c7 34be 653d 263d 50ca 22be b871 943e
000002d0: a6a0 bd3c 1812 75bd d3c4 61bd 8fec ab3d
000002e0: 5eb3 00be 9882 e43e e455 0f3e 52a1 493d
000002f0: 81ef 8ebe 43a6 41be e940 c43d 67b3 443d
00000300: 9f5d 42bc 8456 ce3b da69 7fbd 37a6 21be
00000310: 9837 3dbd 5299 9e3e 74ef cc3d 5265 acbd
00000320: fab7 723e 9189 0cbd 038d 8ebd 624c 403e
00000330: 1f71 1bbe f44d a83d 8a7a 9f3e 93a8 52be
00000340: cebd 693d b44c 7a3e ec78 133f 3359 bebe
00000350: a776 a13e 524f ddbc fa4e b23d 6adb b7bc
00000360: fd2a 3f3d 8f1e ea3d 9310 35be 0bc3 75bc
00000370: b4e1 c4bd 03a9 8aba ad1d 8f3d 0554 9ebd
00000380: 3a0a e2bd 639b 6cbe 8460 713c 800d 70bd
00000390: 2a97 bbbd f37c 9fbe faf2 38bd b514 38bd
000003a0: 5f2f 8a3e e620 78bd 672d bebe 81fc 95bd
000003b0: ca27 cb3d 0cf5 9cbc c04c 3dbe 990c 80be
000003c0: 1ade dabd eec0 90be 7600 49bd ba49 583e
000003d0: 8057 773e 7061 3e3e dc22 8cba 375d a2be
000003e0: 122a fe3b 65c1 88bd d34f 4fbe 6bd8 83bd
000003f0: adab 5abd a2bf 1dbe b82f 0bbe 270d a23e
0.26362032 0.10053531 0.42804563 -0.032210868 -0.21387017 -0.08065204 -0.26861358 0.06810767
0.012765054 -0.36936632 0.1666693 -0.24879684 0.029397417 -0.28574264 0.4517098 -0.122900456
-0.03141535 0.39917397 0.044927847 0.17115039 -0.07196755 0.16248801 -0.17088266 0.04804372
0.16211234 -0.025126275 0.04534932 -0.25464666 -0.25334495 -0.17888565 -0.15464354 0.10473344
-0.18029585 0.038559645 -0.06327248 0.21067365 0.29053146 -0.10301219 -0.04395666 -0.32932645
-0.11454609 -0.08808366 -0.34728196 -0.23061839 -0.20471622 0.03049511 -0.19764909 0.053369574
-0.06745761 0.0852263 -0.2600194 -0.17691003 0.23181899 -0.15954617 -0.014692766 0.0829154
0.19348533 -0.11991635 0.00085702614 -0.1147984 -0.018474238 0.13299759 0.054207943 0.059616446
-0.29062128 0.09824917 -0.36715633 0.0062071704 0.004115252 0.3469638 0.006946754 -0.1404909
-0.010598369 -0.049274035 -0.04973963 -0.1642089 -0.0898958 -0.102999665 0.30469447 -0.04320752
0.05639733 0.2434064 0.07325686 0.13516465 0.1582642 -0.009630525 0.25607803 0.008963847
-0.07188037 -0.079616 0.3376354 0.08766767 0.28033674 0.35398847 -0.09465289 -0.13163163
0.16005073 -0.12793267 -0.23362006 -0.14580782 -0.05922022 -0.166238 -0.07572762 0.014949451
0.26259187 -0.20066665 -0.38248983 0.07144293 -0.06813158 -0.089859985 -0.07164623 -0.13384461
-0.040557075 -0.36264747 0.2764125 0.122998446 -0.27527374 -0.06715973 0.09936672 -0.12958774
0.097329676 -0.10469036 0.21959367 0.48015925 0.07511342 -0.28078726 0.2558502 0.27833253
0.27847886 -0.0054997285 -0.020444138 -0.14522998 0.050208267 -0.1266741 -0.2600174 0.0784473
0.017599918 0.24041657 -0.080740996 0.0027185022 0.17606705 -0.12617853 0.021107549 -0.15895961
0.09211712 0.040574975 -0.083711535 -0.049196772 -0.12998393 -0.029988827 -0.07966963 0.099643804
-0.099971555 -0.13916525 -0.14408424 -0.09238732 -0.08892537 -0.28490487 0.026634568 0.101560496
-0.19782084 -0.239245 -0.30981222 0.33673793 -0.064437345 -0.2612549 -0.14787462 -0.10949664
-0.2171576 -0.1139777 0.32472473 0.1739187 0.05486539 -0.08489691 -0.0369796 -0.069512635
-0.1765405 0.040585894 -0.15897489 0.2899301 0.023147892 -0.05983171 -0.055119347 0.08394729
-0.12568423 0.44630885 0.13997608 0.049226113 -0.27917102 -0.1891108 0.09582693 0.048022654
-0.011863141 0.0062969346 -0.062356807 -0.15786062 -0.046195596 0.3097635 0.100066096 -0.08417763
0.23702994 -0.03431088 -0.069604896 0.18779138 -0.15179871 0.082179934 0.31148177 -0.20572118
0.057065777 0.24443322 0.5760639 -0.3717743 0.31535837 -0.027015362 0.0870647 -0.022443492
0.046671856 0.1143161 -0.17682104 -0.015000115 -0.09613362 -0.0010578934 0.06988082 -0.07730869
-0.11037107 -0.2310615 0.014732484 -0.058606625 -0.09159692 -0.31150016 -0.045153596 -0.044941623
0.26989266 -0.06057825 -0.37144014 -0.07323552 0.099196985 -0.019159816 -0.18486309 -0.2500961
-0.10686894 -0.28272194 -0.049072705 0.21121874 0.24154472 0.18591857 -0.0010691541 -0.31711742
0.00775648 -0.06677512 -0.20245294 -0.06437763 -0.05338638 -0.15405133 -0.13592422 0.3165066

fc3.bias f4 [10]
00000000: 6969 08be fb8b 873e 630d 0abd 2f3a 473c
00000010: be9a 8f3d 4061 92bd c6e5 28bd 13e4 23bc
00000020: 2470 8d3d 0c4c eb3c
-0.13321461 0.26473984 -0.033704173 0.012159868 0.070119366 -0.07147455 -0.041234754 -0.010003108
0.06906155 0.028722785
